==========================================================================================
Layer (type:depth-idx)                   Output Shape              Param #
==========================================================================================
Lenet5Model                              [1, 10]                   --
├─Sequential: 1-1                        [1, 10]                   --
│    └─Conv2d: 2-1                       [1, 6, 28, 28]            156
│    └─ReLU: 2-2                         [1, 6, 28, 28]            --
│    └─MaxPool2d: 2-3                    [1, 6, 14, 14]            --
│    └─Conv2d: 2-4                       [1, 16, 10, 10]           2,416
│    └─ReLU: 2-5                         [1, 16, 10, 10]           --
│    └─MaxPool2d: 2-6                    [1, 16, 5, 5]             --
│    └─Flatten: 2-7                      [1, 400]                  --
│    └─Linear: 2-8                       [1, 120]                  48,120
│    └─ReLU: 2-9                         [1, 120]                  --
│    └─Linear: 2-10                      [1, 84]                   10,164
│    └─ReLU: 2-11                        [1, 84]                   --
│    └─Linear: 2-12                      [1, 10]                   850
==========================================================================================
Total params: 61,706
Trainable params: 61,706
Non-trainable params: 0
Total mult-adds (M): 0.42
==========================================================================================
Input size (MB): 0.00
Forward/backward pass size (MB): 0.05
Params size (MB): 0.25
Estimated Total Size (MB): 0.30
==========================================================================================
…
